task1_2_visual/model_seq.pth (torch, 65063 bytes, 13 tensors)

lstm.weight_ih_l0 f4 [128, 9]
000000 a7 ee 14 be 6a 25 fe bd d4 54 59 3d 1e 6d c3 bd
       -0.14544164 -0.1240948 0.053059414 -0.09542297
000010 37 6f d0 3d 0b 26 33 be de 6f ed 3c 8b fe f9 3b
       0.101774625 -0.17494981 0.028984006 0.007629221
000020 a2 cb fa bd c8 6b 1f 3e bb 80 05 3c 2d de 34 bc
       -0.12245871 0.15568459 0.0081483675 -0.011039299
000030 37 77 f5 3a 43 74 78 3e dc 3a 87 3d 65 a9 cc bd
       0.0018727545 0.242631 0.066030234 -0.09993247
000040 5c 00 0e be 8d a3 6d be 35 5e a0 bd 2d 34 96 bc
       -0.13867325 -0.23206921 -0.078304686 -0.018335426
000050 a0 26 a8 3d af ea 86 3e 6b 47 d1 3d 33 d1 79 3e
       0.08210492 0.26350924 0.102187 0.2439621
000060 c2 81 be b9 ff 00 58 3e 57 52 31 3e f2 45 54 3c
       -0.000363363 0.2109413 0.17316566 0.012956129
000070 cc 2b 05 bc 78 3e 99 3d da 61 93 3d 83 2e 04 3e
       -0.008128118 0.07482618 0.07196398 0.12908368
000080 3a a1 e7 bd 9b 47 33 bd b9 a9 9a bd c7 e0 0f 3d
       -0.113100484 -0.04376946 -0.07551903 0.035126474
000090 e5 6d 8f bb 7c 21 1c be 60 9d c9 bd 27 fd f5 3d
       -0.004377114 -0.15247148 -0.0984447 0.120111756
0000a0 46 23 a4 bd 3f 15 34 3e dc 76 fd 3d e5 b3 e4 3c
       -0.080145404 0.1758623 0.12376186 0.027917812
0000b0 51 2c 3f bd 7f f3 d5 3b cb 4f 3e bd ba 80 ef 3d
       -0.046673123 0.006529271 -0.046462815 0.116944745
0000c0 58 4e 32 bd 79 94 33 be 52 19 92 3b a8 82 e8 bd
       -0.043531746 -0.17537107 0.004458585 -0.11353046
0000d0 e2 0d 3d 3e 5f 84 bd 3d fb f2 dc 3d 98 f6 01 be
       0.18462327 0.092537634 0.10788532 -0.12691724
0000e0 1f 2d 19 3e 13 9e 91 bd 5f 56 8b 3c 88 ca 6f 3c
       0.14958619 -0.071102284 0.017008958 0.01463569
0000f0 aa 9e 9c bc 0b 3a c5 3d 0e e0 a2 bd ee b0 85 bc
       -0.019118626 0.096302114 -0.07952891 -0.016319718
000100 32 66 ae 3c 5c da d3 3d de 7c fc 3d d9 7d 31 be
       0.021288965 0.10344383 0.12328504 -0.17333163
000110 9b 48 b9 bc 98 c1 77 3e b0 9c 11 bc d6 9e af 3d
       -0.022617629 0.24194944 -0.008887455 0.085752174
000120 5d 10 9a 3d c6 e4 0e 3d 45 c9 b2 3d a7 5b 04 bd
       0.07522652 0.034886144 0.08729795 -0.03231397
000130 53 46 f1 3d 75 aa 68 be 5d a8 81 3c 07 b3 46 be
       0.117809914 -0.22721274 0.015827352 -0.19404231
000140 eb ee d9 bd c5 30 94 3d 51 f0 36 3e 3b d3 0a be
       -0.10641273 0.072358645 0.17865111 -0.1355714
000150 54 82 b0 3e 63 57 f7 bc 84 65 13 3e 03 2b a6 3c
       0.34474432 -0.030193036 0.14394194 0.020284181
000160 d1 82 8c bd 9c ac e5 bc c9 0a 6e 3e b7 b4 4a be
       -0.06860889 -0.028036408 0.23246302 -0.197955
000170 d2 d2 19 3e 1e 87 0c 3d 83 9a fb bd 30 38 a6 bc
       0.15021828 0.034308545 -0.1228533 -0.020290464
000180 fc d5 0c 3d 40 51 a8 3d a4 e9 00 bd 6e b0 9a 3c
       0.03438376 0.08218622 -0.031472817 0.018882956
000190 25 21 2a 3e 95 09 c4 3d 91 36 0f bd 10 88 0b be
       0.16614206 0.0957214 -0.034964148 -0.13626122
0001a0 74 c8 49 be 55 40 34 bd bd 45 4a 3e e9 18 d5 3d
       -0.19705373 -0.044006664 0.19753166 0.10405142
0001b0 ba 47 a7 bd 6e 3e 54 be b0 87 60 3e b7 6a 62 be
       -0.08167978 -0.2072694 0.2192676 -0.22111021
0001c0 0d 90 86 3b 25 d7 3d 3d 9d b9 a3 be 59 6d 1d 3d
       0.0041065277 0.046347756 -0.3197755 0.03843436
0001d0 89 a2 29 3c 4a 84 5c bc ea d2 21 3e 2c 33 a9 bc
       0.010353693 -0.013459275 0.15803114 -0.020654283
0001e0 55 ce 5b bd f0 10 0f be 6a 97 ea bd 84 23 fc 3c
       -0.05366357 -0.13971305 -0.11454661 0.030778654
0001f0 4b e2 01 3e ee 73 72 3e f0 0e 06 be 05 e9 9f bd
       0.1268398 0.23677036 -0.13091636 -0.07808117
000200 bc 27 9c 3d 81 29 11 be 59 d0 2f 3e a1 33 a2 3b
       0.07624766 -0.14175989 0.17169322 0.0049500023
000210 73 7e 62 3e 4d f8 07 3d 9d 5e b1 bd 95 cf 2f 3d
       0.22118549 0.033195782 -0.08660624 0.042922575
000220 f6 19 cd 3d f8 ab c1 bd 86 ab 51 be 5f 76 95 3c
       0.10014717 -0.094566286 -0.20475587 0.01824492
000230 f9 ad 27 be d3 dc 07 be 94 81 14 bd bb 1a 56 3d
       -0.16374959 -0.13267832 -0.036256388 0.052271586
000240 03 df 58 bd 3d 34 3b 3c 48 24 cb bc 0b f2 f5 bd
       -0.052947056 0.011426029 -0.024797574 -0.12009057
000250 98 c7 e9 bd 7d 1f 47 3e 1f ab e8 bd ed d4 2f bd
       -0.114150226 0.19445606 -0.11360764 -0.04292767
000260 85 8f 71 be 14 bd 64 3e f8 64 9b 3c 70 e0 39 3d
       -0.23589905 0.22337753 0.018969044 0.045380056
000270 a4 22 c9 bd 75 20 fd bc 8c 4f 14 bd 22 0d 08 be
       -0.0982106 -0.030899266 -0.036208674 -0.1328626
000280 f5 d2 de 3c 3e b4 64 bd 63 52 ad 3e 29 35 e4 bb
       0.027200202 -0.055835955 0.3385192 -0.006964345
000290 25 b6 33 3e 0d 99 46 bd d7 43 a5 bd 75 03 0a 3d
       0.17549951 -0.048485804 -0.0806958 0.033694703
0002a0 cb c4 13 bd 0a d5 91 bc c6 77 26 be fb 0d 15 bd
       -0.03607635 -0.01780178 -0.16256627 -0.036390286
0002b0 a1 dc 36 bd ca be 05 bd e3 85 f2 bd 8f 3b a1 3d
       -0.044644002 -0.032652654 -0.11841943 0.07872688
0002c0 99 af 44 bd 85 7d e7 3d f5 bb 03 3e 96 fe 00 3e
       -0.048019025 0.11303238 0.12864669 0.12597117
0002d0 5d a3 09 3e e1 6c 48 bd e4 7b 83 3d 18 4d 97 3d
       0.13441224 -0.04893196 0.06420115 0.07387751
0002e0 0e 94 00 be c6 a1 a4 3c fd fc 62 3e a9 a9 4c bd
       -0.12556478 0.02009667 0.2216682 -0.049966488
0002f0 00 07 b1 3d 48 17 48 be a5 ef f7 3d 35 65 8e bd
       0.08643913 -0.19540131 0.121062554 -0.069528975
000300 1a 66 55 3d a9 4d 5c bd 7c f5 61 bd 5a 92 66 be
       0.052099325 -0.053785 -0.055165753 -0.22516766
000310 39 ac 93 bd 06 4a 76 3d cc 69 c0 3d 36 e4 14 be
       -0.07210583 0.060129188 0.09395179 -0.1454018
000320 9a 94 15 be 2a a8 13 bd bd 44 0d 3e 6b 9a 0b be
       -0.14607468 -0.036049046 0.13795753 -0.13633125
000330 8f f9 c9 bd 9d 8c 40 be 89 80 90 3d 3d f6 cd 3d
       -0.09862053 -0.1880364 0.07055766 0.10056732
000340 7b b0 f1 bd 0d 6b 65 bc 0b 3f f8 bd bb 8e 62 3d
       -0.11801239 -0.014002574 -0.121213995 0.0553119
000350 1d 06 61 bd 38 cd 69 bd f9 79 89 bc 48 72 09 be
       -0.05493747 -0.057080477 -0.016781794 -0.13422501
000360 33 6c 28 3d 42 ec 4f bd 4a 8d ad bd e4 f4 d1 bd
       0.04111881 -0.050762422 -0.084742144 -0.10251787
000370 e7 ae 6e be e7 ef 1e be b7 04 8b 3c 00 f8 9a bc
       -0.23308907 -0.15521203 0.016970022 -0.018917084
000380 84 f4 ab 3d ab 09 0d be de 82 3d 3c 6c 62 71 3c
       0.08396247 -0.1377322 0.011566846 0.014732938
000390 96 6d c7 bd 37 cf 16 3d 52 04 1c 3d 6a b9 c8 bd
       -0.09737699 0.03681871 0.038090058 -0.0980099
0003a0 9f e7 f1 bb 7f 52 d0 bd 6b a5 36 3e 0c 9d 9b 3d
       -0.0073823477 -0.10171985 0.1783654 0.07598314
0003b0 6e ed 21 be e2 37 3f 3e 66 bb 47 be 6f c1 ad bd
       -0.15813228 0.18673661 -0.1950508 -0.0848416
0003c0 ca 5d 92 3d 09 b1 15 bd fa cd 1d bd ac 44 04 be
       0.07146795 -0.036545787 -0.038526513 -0.12916821
0003d0 12 9f 53 be b2 52 f8 bd d5 2b 3a bd 51 d8 32 3e
       -0.2066615 -0.12125148 -0.045451958 0.1746533
0003e0 1c 18 bd 3d c0 85 03 3e 89 fa 97 bd 9f ae 62 3d
       0.09233114 0.1284399 -0.07420833 0.055342313
0003f0 d3 b6 29 be 6b 12 30 bd 5b 63 f1 3d e2 57 d5 3d
       -0.16573648 -0.042986315 0.11786529 0.10417153

lstm.weight_hh_l0 f4 [128, 32]
000000 71 2a 03 3e 34 a1 98 3d 9d c8 5e bd 24 8a 1d 3e
       0.12809159 0.07452622 -0.05439054 0.15384728
000010 75 ca a0 bd b7 cc 04 be 38 bc 4b be 9b 56 4f 3d
       -0.078511156 -0.12968718 -0.19896019 0.050619703
000020 ab 32 2c be ec ab 74 bd b0 70 f3 bd ba 85 90 bd
       -0.16816203 -0.05973427 -0.11886728 -0.07056756
000030 82 95 28 3e e2 39 5c 3c 38 1d 13 be 73 fe 8d bd
       0.16463283 0.013441535 -0.14366615 -0.06933298
000040 e2 72 b9 3d 4f 1a c2 3d 8e 4f 15 bd d2 72 3b 3e
       0.09055115 0.09477674 -0.036452822 0.18305519
000050 f5 86 8f bd 8f bc 85 bd 55 31 2f 3e e3 25 1b 3c
       -0.07008163 -0.06530105 0.17108662 0.009469482
000060 07 95 13 be 46 25 ca bc 97 1f 19 3e e6 b6 1f 3e
       -0.14412318 -0.024675976 0.14953457 0.15597114
000070 1e a0 4d 3d 68 85 e9 bd 2c cd 8e 3d 26 34 c1 bd
       0.050201528 -0.11402398 0.06972727 -0.09433775
000080 c1 37 49 3d 6a a9 e6 bc 20 83 cf bd 7c 35 5f bd
       0.049125437 -0.028156955 -0.10132432 -0.054494366
000090 37 ad 69 3a 0d 04 0c 3d 64 43 0f bb fa 4d 7e bc
       0.00089140557 0.03418355 -0.0021860236 -0.015521521
0000a0 a9 2e 27 3d dc e7 d5 bc 76 9f 16 bc 19 6f 18 bd
       0.040815983 -0.026111536 -0.009193292 -0.037215326
0000b0 da b0 8d bc 71 3a 34 3d 4f 67 72 3d c6 7a e9 3c
       -0.017296243 0.044001047 0.059180554 0.028500926
0000c0 71 ca bc bd 14 54 77 bb f1 ba c6 3d d2 f4 56 3d
       -0.092183 -0.0037739323 0.09703625 0.052479573
0000d0 71 cf 62 bd a3 cf 7a 3d cd 91 7b 3d 88 81 f9 3c
       -0.055373613 0.061233174 0.061418343 0.030457273
0000e0 b0 b6 0b bd 66 65 e0 3c 44 ae c2 bd b0 45 6e 3d
       -0.03410977 0.0273921 -0.09505895 0.058171928
0000f0 bb fa d7 bb ad 31 0a bd 43 16 87 3d 06 43 aa 3c
       -0.0065911687 -0.03373878 0.06596043 0.020783912
000100 61 f5 49 3d f7 92 2e 3d 91 52 12 3d 9c 83 6e 3d
       0.049306277 0.042620625 0.035723273 0.05823098
000110 0b a9 02 3e ba 83 01 be 23 85 46 3d 19 77 a6 bd
       0.12759797 -0.12647906 0.048466813 -0.08128185
000120 3b 7e c3 bd 9c 08 96 bb 44 5f 04 be ff 10 08 bd
       -0.09545561 -0.004578663 -0.12926966 -0.033219334
000130 74 a8 a1 3d fc 38 1a be ac 26 93 3d 46 43 25 be
       0.07893458 -0.150608 0.071851104 -0.16138944
000140 1e b5 df bd 3d 6e b1 3c 65 01 0a bd 89 c1 8a 3d
       -0.10923217 0.021659011 -0.033692736 0.06775195
000150 dc 93 d5 bd ab 46 d1 3d 6c f0 e0 3d 32 53 d0 bd
       -0.104285926 0.10218557 0.10983357 -0.10172118
000160 f9 a5 5f bd 1f a0 82 3d 8e 7f ae 3d e5 15 10 3e
       -0.054601643 0.06378197 0.08520423 0.14070852
000170 98 7b 49 3c b7 76 10 be 82 16 82 3c 9f d6 f9 bd
       0.012297533 -0.14107786 0.015879873 -0.12199139
000180 69 1c c7 3c 18 4f 8b 3d 0c 32 71 bd 4a 9a cf 3d
       0.02430554 0.06802195 -0.05888562 0.1013685
000190 b8 f6 bd 3c a9 91 a5 bc bd ce 08 be b9 63 c9 3d
       0.023188934 -0.020211058 -0.13360114 0.09833474
0001a0 e7 ef 85 bc 04 94 39 bd 77 24 e4 bd e2 63 1c 3e
       -0.016349746 -0.045307174 -0.111397676 0.15272477
0001b0 fc a8 a2 3d 12 79 23 be ee 93 42 bd 27 80 8e bd
       0.079423875 -0.15964153 -0.047504358 -0.06958037
0001c0 37 ba d2 3d 0b f4 a0 bc fc 12 9a 3d ba c4 2b 3e
       0.10289424 -0.019647619 0.07523152 0.16774264
0001d0 90 8f 28 bd 71 fd e0 bd 8f 78 1d 3e 1f 83 93 bd
       -0.041152537 -0.1098584 0.1537802 -0.07202744
0001e0 83 01 5c bd a9 a6 d6 3c 4c f8 c0 bd ac 78 05 be
       -0.05371238 0.026202517 -0.09422359 -0.13034314
0001f0 bf 9c 79 3d b7 ac cd bd 68 d3 29 3d 0c 13 f8 bd
       0.0609405 -0.10042708 0.04146138 -0.12113008
000200 57 3a 5f be aa ee ae 3d 3e ac 0d 3e 9f 17 8f 3d
       -0.21799599 0.08541615 0.13835236 0.06986927
000210 b7 22 06 3e 03 e4 e8 bc 02 ae c1 3d d7 9a 43 bd
       0.1309918 -0.028429037 0.094570175 -0.04775509
000220 aa 58 4f 3d 16 2c 6a 3d 70 2a 35 3d c4 c2 69 3d
       0.050621666 0.05717095 0.044229925 0.05707051
000230 ee 9d 23 3e 16 ba 99 bd c8 7f 81 3d 23 52 b0 3d
       0.15978214 -0.07506196 0.063232005 0.08609416
000240 d4 f3 b3 bc 0e 3e e8 bd d0 38 fa bd 22 29 25 bd
       -0.021966852 -0.11339961 -0.122178674 -0.04032243
000250 22 7b 00 be 67 33 80 bd d0 bd 3c 3e 85 3c af 3c
       -0.12546971 -0.06259804 0.18431783 0.021391163
000260 17 ca ee 3a fa be 32 bd ab 74 22 3e 8b 74 b1 3c
       0.0018218186 -0.04363916 0.15864818 0.021662017
000270 28 fb 13 be 03 1a 02 3e 0b 1f 84 3d a5 b6 5b 3d
       -0.14451277 0.12705235 0.064512335 0.05364098
000280 6e 78 48 be c4 23 59 3d d4 e5 4e bb b1 07 2d 3e
       -0.1957719 0.053012624 -0.0031570094 0.16897465
000290 ec 22 3b 3e 9a 6e 28 3d db 37 d3 3d 4a 55 79 3d
       0.1827504 0.041121103 0.10313388 0.060872354
0002a0 06 d8 b5 3d 43 2c e7 ba cc c0 07 be 35 ff 33 3e
       0.08879094 -0.0017637092 -0.1325714 0.17577823
0002b0 55 3c ed 3c 53 4f 16 bd fa 3b 0b bd 54 67 bb 3c
       0.028959433 -0.036696743 -0.033992745 0.02287642
0002c0 10 a3 39 3d f8 d4 dd 3d 71 01 21 3e 4c c2 b3 3b
       0.045321524 0.10831636 0.15723206 0.0054858085
0002d0 50 76 ae bc 65 cd c1 3d 43 6a b6 3d a1 84 af 3d
       -0.02129665 0.09463004 0.089069866 0.08570219
0002e0 8a 9b d2 bc 40 bf a3 bb 93 7f 21 bd ba 1d e5 bd
       -0.025708932 -0.004997164 -0.039428305 -0.111873105
0002f0 0b 36 b0 bd ed 07 ad bd 3e 87 c8 bd 91 37 71 bd
       -0.08604058 -0.08448777 -0.097914204 -0.058890883
000300 84 96 45 be cf 55 96 3d 9c 07 04 3e 65 c6 01 3e
       -0.19295698 0.073405854 0.12893528 0.12673338
000310 fa 46 87 bb d9 14 a2 bd a9 77 b6 bd ac 32 45 3e
       -0.004128334 -0.079141326 -0.08909542 0.19257611
000320 41 11 e8 bd 11 cd 0e be 78 d2 46 be d1 25 93 3d
       -0.11331416 -0.13945414 -0.19416225 0.07184947
000330 63 d4 e1 3d a3 72 49 be 9a f9 a4 3c 66 77 2a be
       0.11026838 -0.19672637 0.02013855 -0.1664711
000340 2b e9 01 bb 89 d5 0c bd e2 f0 a6 3b 32 d3 1f bd
       -0.0019822817 -0.03438333 0.0050946334 -0.03901977
000350 77 7f 28 3d 6f aa 9d 3d db e1 bc 3c f4 6b c2 bc
       0.041137185 0.07698523 0.023056915 -0.023733117
000360 6e 27 0a bc d2 17 b5 3a 29 5f 5e bb 2d c6 95 bd
       -0.008432252 0.0013816303 -0.0033931232 -0.0731319
000370 ed 31 1f be fe 0c b8 bd 0d 85 5a bd 49 cd 94 3a
       -0.15546389 -0.08986853 -0.053349543 0.0011352684
000380 52 93 aa bd 8c 79 3a 3d 06 13 a9 3d 58 b0 1d 3e
       -0.0832888 0.045526072 0.082555816 0.15399301
000390 2e 5a ca 3d e2 11 d1 bd 3a 09 02 be 3c 96 2e bc
       0.09880482 -0.10208489 -0.12698832 -0.010655936
0003a0 2e d4 d7 bd 79 13 11 be 9b 8a e4 bc c1 d7 16 3e
       -0.10538517 -0.14167584 -0.027898123 0.14730741
0003b0 61 f4 74 3d 29 92 eb bd 18 62 cb bd fe f5 1f be
       0.05980337 -0.11502487 -0.09930819 -0.15621182
0003c0 3f d2 95 bd 02 af 4a 3e ae 4e 8e 3d 6c 66 c0 3d
       -0.07315492 0.19793323 0.06948601 0.093945354
0003d0 1c e8 0e 3e 81 1a 91 bd 5e 79 21 3e 24 19 1c 3d
       0.1395573 -0.07085133 0.15768954 0.038109913
0003e0 09 5c 99 bc 2f e5 88 3d 27 02 f4 3d c6 20 88 3d
       -0.018720644 0.06684338 0.11914473 0.06646876
0003f0 1d 28 9a bd 5d b9 cb bc 89 ee 24 3e 10 da 00 bc
       -0.07527182 -0.024868662 0.16106619 -0.00786449

lstm.bias_ih_l0 f4 [128]
000000 5e f6 b7 3d 7c 00 34 3d f6 cf a5 bd c4 30 06 3e
       0.08982538 0.043945774 -0.08096306 0.1310454
000010 68 b2 02 be 62 43 36 3e 95 c2 e9 bd ba 8b d2 bc
       -0.12763369 0.17799142 -0.11414067 -0.025701392
000020 1f 67 7b bb d8 52 35 be ca 91 2e 3e 1b 1e bf bd
       -0.0038361026 -0.17707384 0.17047802 -0.09331914
000030 fd 59 95 bd 22 73 3c 3d 8c 9f 5b bd 9b 6e 1b bd
       -0.072925545 0.046008237 -0.053618953 -0.03794728
000040 24 59 81 3d cf a9 ee 3c 54 c9 9f bd 24 f1 f7 bc
       0.0631583 0.029133705 -0.07802072 -0.030266352
000050 ee ee bd bd b1 92 bd 3d 52 89 40 3d 25 26 b4 3d
       -0.09274088 0.09256495 0.04700596 0.08796338
000060 dd 12 2c 3e f1 83 27 bd f5 0a 47 3e ac f0 22 be
       0.16804071 -0.040897314 0.19437774 -0.15912122
000070 f6 58 d9 bd be d2 08 3e 6e 76 bc 3d 6c 5b 2d 3e
       -0.10612671 0.13361642 0.09202276 0.16929406
000080 82 10 14 bb 19 37 ed 3d 2a 47 f5 bc 9f 36 de bd
       -0.0022592847 0.11582775 -0.02994116 -0.10850262
000090 92 71 04 be 5b 5e c6 bd 04 4e 9f bd 4f 8f cc bb
       -0.12933949 -0.096859656 -0.07778552 -0.0062426697
0000a0 50 d3 3c 3e 84 5b 04 3d 7e c0 d2 bd 2a f1 03 3e
       0.18439984 0.03231384 -0.10290621 0.12884966
0000b0 8e 25 ae 3d 42 c6 d3 bc b3 ec 06 3d ad 39 18 be
       0.08503257 -0.025851373 0.032940578 -0.14865752
0000c0 35 78 e0 3d f5 8f 18 bc 69 44 5d bd 79 da 3a 3e
       0.10960428 -0.009311666 -0.05402032 0.18247403
0000d0 3f 92 23 3e af 3b c8 bd 27 b1 f9 bc 3c 72 18 be
       0.15973757 -0.09777009 -0.03047998 -0.14887327
0000e0 5d 9c bc 3c 08 d2 04 3e d0 15 ba bd 23 49 05 be
       0.023023779 0.12970746 -0.09086192 -0.1301618
0000f0 e4 96 1c 3d 7e 5e ce 3d 55 00 d1 bd ea c8 17 3e
       0.038229838 0.10076617 -0.102051415 0.14822736
000100 49 4c b9 bd 72 f4 11 3e ec d3 11 3d eb b1 23 3e
       -0.09047753 0.14253405 0.035602495 0.15985839
000110 60 2a 2f 3e 29 76 d6 bd 8d 56 3a bd 92 a6 49 3d
       0.17106009 -0.10471756 -0.045492698 0.04923112
000120 05 09 be bd 70 6e c3 3d a3 64 ff bd af 1a 4b 3d
       -0.09279064 0.09542549 -0.12470367 0.049585994
000130 e1 f1 36 3d cd 37 7a 3d 04 9a 0b be 58 aa 97 bc
       0.044664267 0.061088372 -0.13632971 -0.018513843
000140 9e 39 13 be 43 18 33 3c f4 da a3 3b 1c a5 d0 3d
       -0.14377448 0.010931077 0.0050004665 0.10187742
000150 f3 bf 2a bd 9b e9 38 be 49 d5 80 3d 48 af 24 3e
       -0.041686963 -0.18057863 0.06290681 0.1608249
000160 9f 51 91 3c ae 69 ed 3d db a7 7a 3c 35 02 26 3e
       0.017739115 0.115924224 0.015298809 0.1621178
000170 7f 60 0a be 1d b6 fa bd 3b 50 77 3d ff 13 27 3e
       -0.13513373 -0.122417666 0.060379248 0.16316222
000180 13 18 44 3e 72 c6 93 bd d7 43 39 3e 5c 1d 19 bd
       0.19149809 -0.07215585 0.18092285 -0.037381515
000190 b7 e7 d2 bd 94 9b 23 3e 7c c0 10 3e 7c dc 88 3e
       -0.10298102 0.15977317 0.14135927 0.26730716
0001a0 b5 bf 86 bd 81 37 30 be 0a ec eb 3c a9 91 09 3b
       -0.06579534 -0.17208673 0.028799076 0.0020991361
0001b0 fd eb f3 bd e9 a9 a2 bd 51 47 43 bc 82 60 ec 3c
       -0.119102456 -0.07942564 -0.011918859 0.028854612
0001c0 57 56 8b bd 46 a8 f7 bc 9c 50 a9 3d ad a4 27 3e
       -0.068035774 -0.030231606 0.08267328 0.16371413
0001d0 e7 b5 b6 bd 8f 72 5b bd 6c 23 32 3e 35 54 c8 bd
       -0.08921414 -0.05357605 0.17396325 -0.09781686
0001e0 1a 43 20 bd c3 3f 75 bc a6 5b a5 3d 5c 39 d7 3d
       -0.039126493 -0.014968815 0.08074121 0.10508987
0001f0 8c aa 32 3e f6 4c 7c bc e1 2b 4b bd d0 4a f9 bd
       0.17447871 -0.015399208 -0.049602393 -0.121724725

lstm.bias_hh_l0 f4 [128]
000000 34 d4 8a 3d 07 7b a7 bd 9d c3 00 be 26 5f 2d 3e
       0.06778756 -0.081777625 -0.1257462 0.16930827
000010 67 85 0a be 6d 84 50 3e a8 6d 1d 3e 5b 7e 26 3e
       -0.13527451 0.20363016 0.15373862 0.16259138
000020 f2 2d 38 3e 2b 91 4a bd 14 91 11 3e d8 06 d1 3c
       0.17986277 -0.04945485 0.14215499 0.025515959
000030 47 1a ab bd 26 95 1e 3e 62 e1 c9 bd 98 13 86 bd
       -0.083546214 0.15486583 -0.098574415 -0.06546706
000040 c4 51 f6 3d 6d 65 aa 3d 40 47 b0 bc 59 fa b1 bd
       0.12027314 0.08320127 -0.02151835 -0.08690328
000050 e7 1e 84 3d e8 55 02 3e 70 1f 16 3e 48 b5 e9 3c
       0.06451207 0.12728083 0.1466043 0.028528824
000060 24 5a b2 3d 6b 88 ad bd 72 d7 d8 3d 02 81 34 bd
       0.08708599 -0.08473285 0.10587968 -0.044068344
000070 f5 22 29 3e fa 09 a6 3d 2f 6c cd bc 87 d8 9a bb
       0.16517241 0.08107372 -0.025076 -0.004725519
000080 f5 3b c5 3d 2d cc e5 bc 77 cd 04 3e c2 4b 0e 3e
       0.096305765 -0.02805146 0.12969004 0.13896087
000090 02 84 e7 bb 18 38 fc 3c cd af 5e 3e 46 2b b3 bc
       -0.007065297 0.030788466 0.2174675 -0.02187122
0000a0 eb 1a d5 3d 6d e0 67 3d 05 6f 1d 3e 5a d6 dc bd
       0.10405525 0.056610513 0.15374382 -0.10783072
0000b0 0d 9b f5 3d 58 53 83 3d 2a 2e f3 3d 87 af 9d bd
       0.11992464 0.06412381 0.118740395 -0.07699495
0000c0 49 18 1e 3d 14 5c 27 3b ec 45 c5 3d 3c 16 fc 3d
       0.03859738 0.002553706 0.09632477 0.12308928
0000d0 f0 11 28 3e 1f be 29 3d 7a da 20 3e c8 ad 9b 3c
       0.16413093 0.04144108 0.15708342 0.019003764
0000e0 ab bb d6 bc 24 0e 25 3e 1d 90 54 bc e9 ce b8 b8
       -0.026212534 0.16118675 -0.012973812 -8.812344e-05
0000f0 c8 0c 92 bd f4 10 1a 3e 1d 51 02 3c c8 f8 bd 3d
       -0.07131344 0.1504553 0.007953909 0.09275967
000100 f4 0c 37 be e2 f0 33 be 2b 6b cb 3d b3 36 10 3e
       -0.17876035 -0.17572358 0.0993255 0.14083366
000110 53 3f 60 bd 34 e0 00 3e 12 54 16 bd 80 69 08 be
       -0.05474789 0.12585527 -0.03670127 -0.13321495
000120 e8 79 4a 3c f6 19 1b 3e d0 1e 91 bd 7b 13 8b 3d
       0.012358166 0.15146622 -0.07085955 0.06790825
000130 14 00 51 3c 7b c1 56 bd ef ff 2c be 5c 59 90 bd
       0.012756366 -0.05243061 -0.16894506 -0.07048294
000140 21 d5 c2 3c e4 34 14 be ca e0 52 3d ba 4c bb 3c
       0.023783268 -0.14473301 0.051483907 0.022863735
000150 bf 9b e2 3d a9 97 b9 3d 0a 57 1c 3e 3d ea eb bd
       0.110648625 0.0906213 0.15267578 -0.11519287
000160 f4 fa 31 bd b7 1c 15 be 50 c8 7c 3c 47 25 47 bb
       -0.04345222 -0.14561735 0.015428618 -0.003038721
000170 89 6c 0c be c0 b6 4d bd b7 9a b3 3d 6b d2 1b 3e
       -0.13713278 -0.050223112 0.08769744 0.15216987
000180 a4 d0 02 be a8 2f bc 3d 2b ac 26 3e 87 c1 c8 bd
       -0.12774903 0.09188777 0.16276614 -0.098025374
000190 e3 a7 ef 3b 83 d9 96 bc 17 8f 26 3e 9c 93 78 bb
       0.007313715 -0.018414265 0.16265522 -0.003792978
0001a0 0a 35 5d bd 17 96 5f 3d 02 fe 32 3e 1f 2d 9b bd
       -0.05400566 0.054586496 0.17479709 -0.075769655
0001b0 2a 8f 51 bd 39 0d 51 3e be a2 f6 3c cd e3 9c 3d
       -0.051161923 0.204152 0.030106898 0.07660637
0001c0 2d 0d 42 3e f7 00 df 3d 83 fe b1 3d d9 43 f2 3d
       0.18950339 0.10888856 0.086911224 0.11829347
0001d0 b9 7c b0 bd f5 06 c3 bd 86 1b 02 be 6b d4 da bd
       -0.08617539 -0.09522811 -0.12705812 -0.10685047
0001e0 22 60 6f 3d f6 e3 c0 bd f9 89 af bd d3 6b a0 bd
       0.05844129 -0.0941848 -0.08571238 -0.07833066
0001f0 51 3f 4c 3e ec 1d d7 bc ca b6 4f 3e 94 74 8c bd
       0.19946028 -0.026259385 0.20284572 -0.06858173

lstm.weight_ih_l1 f4 [128, 32]
000000 b9 c4 1a 3d c9 ad ab 3d 59 c8 a2 3d 0c 18 99 3d
       0.037785266 0.08382756 0.079483695 0.0747529
000010 01 44 05 3d 7d af 18 be 11 70 ce bd 15 af ff 3d
       0.032535557 -0.14910693 -0.10079969 0.12484566
000020 68 66 bf bc 17 24 df 3d 5d a0 08 3e 47 0f b5 bb
       -0.02336426 0.108955555 0.13342424 -0.005525503
000030 c6 38 d6 3d 50 f7 17 3a fa b2 32 bd 03 cb e5 bd
       0.104600474 0.00057970453 -0.043627717 -0.11220362
000040 09 de 24 bd 2e 8b 41 3d de 82 c0 3c 60 c8 85 bc
       -0.04025081 0.047251873 0.023499902 -0.016330898
000050 e1 cb 0a 3e e4 91 b9 3d de 6a 0d bd 19 bc bd 3d
       0.13554336 0.090610296 -0.034525745 0.092643924
000060 39 2a 01 3b 82 87 eb bd 52 11 fc 3d b2 44 84 3d
       0.0019709005 -0.115004554 0.12307991 0.06458415
000070 5b 6d cc bd 73 2e 97 bd c9 62 4f bd 0d c3 df 3d
       -0.099817954 -0.07381906 -0.05063132 0.10925875
000080 90 ad e1 bd 1a 2a f3 bc f0 b2 26 3e 55 5b 84 bd
       -0.110194325 -0.029683162 0.16279197 -0.06462733
000090 06 fa cb 3d 6d 42 ef 3d e7 97 2b be 89 03 31 3e
       0.099597976 0.116825916 -0.16757165 0.17286505
0000a0 1b 4e 3b bd c5 f0 56 ba 48 6a 1b 3d e7 28 2e 3e
       -0.045728784 -0.00081993296 0.037943155 0.1700779
0000b0 18 5e 7e 3d d3 84 a5 3d c1 cd cd bc a7 61 2e be
       0.062101454 0.08081975 -0.025122525 -0.17029439
0000c0 29 62 88 bd 68 99 ee 3d f8 3c f8 bd 51 a7 8e bc
       -0.066593476 0.11650354 -0.12121004 -0.017413767
0000d0 48 6c 44 3e 60 9a 87 3d 85 95 a4 bd 33 36 90 3d
       0.19181931 0.066212416 -0.08036331 0.07041588
0000e0 01 d9 9e bd 77 52 46 bc 73 72 68 bd ec cb 1c 3e
       -0.07756234 -0.012104622 -0.056749772 0.15312165
0000f0 e9 36 39 be 3f 8d 78 bd c0 b6 d8 3d 7b 4b 86 3e
       -0.18087353 -0.060681578 0.10581732 0.26229462
000100 5c 71 8f 3c 97 a1 c2 3d 05 b6 b1 3d 4b cd 2a 3e
       0.017510109 0.09503477 0.086772956 0.16679876
000110 6d 99 e4 3d e8 f3 13 be 3d 5b 3d be 88 b0 10 3e
       0.11162076 -0.14448512 -0.18491836 0.14129841
000120 df c9 6b bd 06 43 11 3d 99 ed 92 bd e2 1e 07 bd
       -0.057565566 0.03546431 -0.071742244 -0.032988437
000130 0b 38 c1 3d b1 de fa bd d9 b3 b1 3d 4c ca 07 3d
       0.094345175 -0.12249506 0.08676881 0.03315191
000140 f9 18 3c 3d 3a e3 84 bd 86 9d a6 bd d0 4a 2e 3d
       0.045922253 -0.064886525 -0.08135514 0.042551816
000150 65 37 0c 3e a3 0b 06 bc 6a f2 ea bd 93 88 11 bd
       0.13693006 -0.008181485 -0.11472018 -0.035530638
000160 8f 24 b6 bc 01 ee 39 3e 6b f8 03 3d a9 c4 76 3d
       -0.02223423 0.18157198 0.03221933 0.060246143
000170 2c ae 1c bd 74 8d 19 be de 36 89 bc b0 cf 68 3d
       -0.03825204 -0.14995366 -0.016749796 0.05683869
000180 95 86 1b bd fd 44 27 3d cd dc c8 3c 11 23 d3 3d
       -0.037970144 0.040837277 0.024519349 0.10309423
000190 96 fd ac bd 94 e4 04 3d 28 38 7e bd f9 78 f3 bc
       -0.08446805 0.03244455 -0.062065274 -0.02972077
0001a0 ed 0d 03 bd 09 93 6a bd ce da 78 3c c5 f8 d1 3c
       -0.031995703 -0.05726913 0.015188886 0.025631318
0001b0 46 07 11 3e a0 8f 39 be ef b8 88 bd e7 c4 93 bd
       0.14162931 -0.18121195 -0.06675898 -0.072152905
0001c0 c0 9d 86 bd f3 ab 9c bd bd 23 9a 3d ef 5a c9 3d
       -0.06573057 -0.07649984 0.07526348 0.09831797
0001d0 f7 db ab bc 71 b7 da bc 52 49 9f 3d d2 52 b4 bd
       -0.02097891 -0.0266988 0.077776566 -0.08804859
0001e0 fb 66 bb bd 40 1e 78 3d 74 31 46 3e ef 57 c3 3d
       -0.09150501 0.060575724 0.19354802 0.095382564
0001f0 96 29 10 bd 13 f8 e3 bd 7e 3f b1 bd 71 04 85 3c
       -0.03519591 -0.11131301 -0.08654688 0.01623747
000200 a4 4d d3 3c 33 87 4e 3d c9 2b ef 3b fb 33 85 bd
       0.025793858 0.050421905 0.007298921 -0.06504055
000210 d7 58 af bd 23 62 56 bd 66 d5 9f bc e7 ce 6e 3d
       -0.08561867 -0.052339684 -0.019510936 0.058302786
000220 46 a8 37 3d 3f bb ee 3c 29 62 ca bd b5 b7 9c bd
       0.044838212 0.02914202 -0.09882004 -0.07652227
000230 e8 b7 dd bc 00 71 4c bc 77 36 e2 bd 57 f2 e6 bd
       -0.027065232 -0.012478113 -0.110455446 -0.112766914
000240 53 9c 20 bd cc 7b bc 3d 90 6b 6e bc 21 6b 01 3e
       -0.039211582 0.092033 -0.014552012 0.12638523
000250 6c eb 64 3d b9 18 6c bd d1 05 62 3c 40 67 c1 bc
       0.05588858 -0.057640765 0.013795332 -0.023608804
000260 0e b9 b9 3c b1 6b 0a 3d 17 f2 cd 3d 40 d6 76 3d
       0.022671249 0.03379411 0.100559406 0.06026292
000270 16 d7 5b bd 7f b9 73 3d 75 78 ae bc 54 91 5b 3c
       -0.05367192 0.059503075 -0.021297673 0.013401348
000280 de db 9f bb 91 36 7e bd 0c cb 3c bd e6 a7 ca bd
       -0.004878505 -0.062063757 -0.046092078 -0.09895305
000290 1b 0e 9f bd 04 10 41 bd 11 cc 1d 3d ae 9d 1d 3d
       -0.07766362 -0.047134414 0.03852469 0.038480453
0002a0 74 f8 44 3d ef 55 d3 3d 25 84 0c be d5 06 e4 3c
       0.048088506 0.10319125 -0.13722284 0.027835289
0002b0 9c 32 02 bd 07 a2 9e bc 17 c9 76 bd a2 05 e0 3b
       -0.031786546 -0.01936437 -0.060250368 0.006836609
0002c0 80 97 18 be 00 f0 96 bd 57 39 f2 bd 75 09 fc bd
       -0.14901543 -0.07369995 -0.11827343 -0.12306491
0002d0 73 6f 1f 3d 5f d3 94 bd 1c f5 b4 3c 56 fe 79 3d
       0.038924646 -0.07266878 0.022089534 0.06103357
0002e0 7d a1 85 3b 0c e0 ab bc af b2 e3 bd 31 b6 dd 3d
       0.004078089 -0.020980857 -0.111180656 0.10825766
0002f0 da 58 65 3b f4 37 62 3c 98 dc 1b bd 71 63 14 bd
       0.0034995587 0.013807286 -0.03805217 -0.036227647
000300 cd 88 a9 bd a8 31 67 bd dc f7 df bd d8 9e 61 bd
       -0.08278046 -0.05644384 -0.10935947 -0.055083126
000310 a9 02 8d 3d 87 6a dd 3d 04 b8 d0 3d d5 42 7c 3b
       0.06885273 0.10811334 0.10191348 0.0038491983
000320 dc e1 ad 3d a8 82 86 bc 12 e9 88 bd ba c9 1c 3e
       0.08490345 -0.016419724 -0.0668508 0.15311328
000330 60 1a 05 3e 88 de b2 3d 6c 3c 04 3d 70 59 aa bd
       0.12998343 0.08733851 0.032284185 -0.0831784
000340 94 da ad bd f2 e1 db 3c c6 bd ce 3c c0 7c 0f 3d
       -0.08488956 0.026841138 0.025236975 0.03503108
000350 18 5b 25 3e 3b 3d 78 bc 09 44 d3 bd ad d1 0f 3c
       0.16148031 -0.015151317 -0.10315711 0.008778018
000360 20 04 91 3d a2 1b a6 bd 6b 38 08 bc a9 2a c6 bc
       0.07080865 -0.08110739 -0.008314232 -0.024190264
000370 1c 97 26 be ba f9 14 3d 4e ec a9 bd a1 3f 0a 3d
       -0.16268581 0.03637097 -0.08297025 0.033752088
000380 a1 d3 4e bd 3f ca d2 bc 82 40 1d 3c 19 ac 7f 3d
       -0.050494794 -0.025731204 0.009597899 0.062419984
000390 92 36 0a 3e 66 1e 12 be 07 5a 2d bd 20 cc 92 3d
       0.1349738 -0.14269409 -0.042322185 0.0716784
0003a0 31 fe 82 bc ea 7b 46 3d e0 89 89 3d eb 96 b6 bd
       -0.015990349 0.048458017 0.06715751 -0.08915504
0003b0 9e eb 7e 3d b4 3a f0 3c 3a 22 93 3d 44 ac c9 bd
       0.06223642 0.029324867 0.071842626 -0.0984731
0003c0 9e 16 6e bd c0 d4 1b 3b 31 ba 05 3e 7c b2 10 3e
       -0.05812704 0.0023777932 0.13059308 0.14130586
0003d0 f5 64 03 be 25 6c a2 bd 85 1a a3 3d 97 79 4f bc
       -0.12831481 -0.07930783 0.079640426 -0.012663267
0003e0 0f 96 62 bc 0d 18 b7 3b a0 fd cb bc 19 e5 02 3c
       -0.013829722 0.005587584 -0.024901211 0.007989191
0003f0 96 f2 a9 bd ad 05 6e bd 1d fa 50 bd 84 24 a4 3c
       -0.08298223 -0.05811088 -0.051019777 0.020036943

lstm.weight_hh_l1 f4 [128, 32]
000000 40 24 a4 3d 6d 64 5c 3d d8 fe 01 be 1e c7 6c 3d
       0.08014727 0.05380671 -0.12694871 0.05780708
000010 0e 7a b4 3d fb ec 75 3d f1 90 e9 3d fd 3f be 3d
       0.088123426 0.060040455 0.114045985 0.092895485
000020 1c be c2 3d 6f dd a2 bb 0c c3 56 bd 29 ad 85 bd
       0.09508917 -0.0049702446 -0.052432105 -0.06527168
000030 73 fe 18 3c 75 35 0e 3e fa f7 1d bd c4 49 f5 3d
       0.009338009 0.1388758 -0.038566567 0.1197696
000040 6f 22 0a bd 8f 76 01 be 5c ce a6 bc fb 8d dd bd
       -0.033724245 -0.12642883 -0.020362072 -0.10818096
000050 1e dc 1f 3c e6 c1 84 3d 43 b6 96 bd 9a fb 89 3d
       0.00975707 0.06482296 -0.073589824 0.06737442
000060 75 7c 25 3c c1 3a 73 bd 29 3c 0b 3e ab 05 b0 bd
       0.010100474 -0.059382204 0.13597168 -0.08594831
000070 77 d0 02 be b7 b1 b5 3d 9b 3a c0 bc f8 fa af bd
       -0.12774836 0.08871787 -0.023465445 -0.0859279
000080 33 85 ac bd 58 17 b6 bd c7 76 b6 bd 19 33 01 3e
       -0.08423843 -0.08891171 -0.08909374 0.12617148
000090 e4 7f d5 bd 1f 15 f2 3d f8 10 07 be 8a a5 1a be
       -0.10424784 0.11820435 -0.13190067 -0.1510221
0000a0 79 5e d0 3d 44 6d e9 bd ae ac da bb 34 4a 6c 3d
       0.10174269 -0.11397794 -0.006673417 0.057687953
0000b0 f0 f7 06 bd 54 a5 8c 3d 54 8d 2f 3e 11 04 92 3d
       -0.032951295 0.06867471 0.17143756 0.07129682
0000c0 a8 27 0a bc e8 30 25 be 56 ef a4 3c a6 52 f6 3d
       -0.008432306 -0.16131938 0.020133656 0.12027483
0000d0 9e d0 82 3d 20 af b9 3c b0 a7 18 3d 5d 6f 60 3b
       0.06387447 0.022666514 0.037269294 0.0034246065
0000e0 b0 ba 96 bb 4e 79 f7 3c b3 60 88 bd fe fc d4 3d
       -0.0045998916 0.03020921 -0.06659069 0.10399817
0000f0 37 4c 27 be 77 c1 94 3c 33 66 95 bd 14 0b 65 bd
       -0.16337667 0.018158657 -0.072948836 -0.055918768
000100 90 37 0f bd 2b 73 f7 bc 0a e7 0a 3e 1c 2d f3 3d
       -0.034965098 -0.030206284 0.13564697 0.11873838
000110 d4 eb d8 3d 58 26 dc bd 43 5b 8c bd 30 c2 28 be
       0.10591856 -0.10749501 -0.06853344 -0.16480327
000120 68 4f 13 3c 7a b9 36 3d d9 a2 94 3d 98 86 92 3d
       0.0089911 0.044610478 0.07257623 0.07154578
000130 0c ea 17 be 3d 66 4f bd 89 43 9d 3d 60 27 07 bd
       -0.14835376 -0.05063461 0.07678897 -0.032996535
000140 08 12 af bd 81 11 a8 bd 2b 21 e6 3d 21 7a b8 3d
       -0.08548361 -0.082064636 0.11236795 0.09007669
000150 8b 5b b6 bd c0 8d c6 bc a2 2a 84 3d a6 52 04 3e
       -0.08904179 -0.024237514 0.06453444 0.12922153
000160 e4 5f b9 3c 4f 7b 03 be ef 01 07 3e a1 c9 24 be
       0.022628732 -0.12840007 0.13184331 -0.1609254
000170 de 72 2e be d7 bc 3d 3d 11 fb 0b 3e b2 e9 a4 3d
       -0.17036006 0.04632267 0.13669993 0.08052386
000180 50 cf b3 bd 0c 2f b6 ba f6 74 a5 bd e6 eb 8a bd
       -0.08779776 -0.0013899519 -0.08078949 -0.06783275
000190 a0 e9 d5 3d f1 32 a9 3d 38 50 74 3d 78 df 76 3d
       0.10444951 0.082616694 0.059646815 0.06027171
0001a0 01 fb 27 3e a6 ac 5a be cd 44 2c be 96 47 bd 3d
       0.16404344 -0.21354923 -0.1682312 0.092421696
0001b0 94 87 c0 3d fa 56 ac 3d 62 1b 36 3e b4 47 d6 bc
       0.094008595 0.08415027 0.17783883 -0.026157238
0001c0 cd 69 b6 bd 25 49 88 bd 07 74 62 3d 2d 97 16 be
       -0.08906899 -0.06654576 0.055286434 -0.14706106
0001d0 77 cc 1b bd 97 51 86 bd ad 61 86 3d 6f ac c2 3c
       -0.03803679 -0.06558531 0.06561599 0.023763863
0001e0 a8 20 c2 3c fa 33 9f 3d 4c ca b7 bd 7a 47 bc 3d
       0.023697212 0.077735856 -0.08974132 0.091933206
0001f0 30 fe f1 bd 9d 9f f4 3d 4e 37 c1 bd 6c 48 bd bd
       -0.118160605 0.11944506 -0.09434377 -0.09242329
000200 cb 1a c4 3c 6c 3e 79 bb 4c a3 29 3d 76 6a a5 bd
       0.023938557 -0.003803159 0.041415498 -0.080769464
000210 b3 46 c0 bd 97 1b ae 3d 67 89 f2 bc df cc 0f be
       -0.09388485 0.08501356 -0.029606534 -0.14042996
000220 91 f6 d5 3c ac b2 5e 3d 84 44 15 be 3d de ca bc
       0.026118549 0.054369614 -0.14576918 -0.024764175
000230 98 0e 76 3c 5b 83 f0 bb 0d 2a 88 3d be 31 05 3d
       0.015018128 -0.0073398775 0.066486456 0.03251814
000240 77 f0 8b bd 24 32 aa 3c 2c f7 d4 3d 19 2c cd bc
       -0.068329744 0.020775862 0.10398707 -0.025045441
000250 7c ef 94 bc 61 dd e6 3d 05 21 4f bd d7 ef cc bd
       -0.018180601 0.112726934 -0.0505686 -0.10006683
000260 56 74 5d 3d d2 83 02 bd a1 07 b9 3c 7e f6 08 3d
       0.054066025 -0.031863995 0.022586646 0.0334382
000270 82 7b 0a be 52 bf 20 3d 85 72 88 3d 2e b9 0e 3e
       -0.13523677 0.039244957 0.06662468 0.13937828
000280 d0 e5 a6 3c 64 be eb bd 77 b3 c7 bc c5 0c 8c bd
       0.020373255 -0.115109235 -0.024377568 -0.06838373
000290 2f d8 8d bd 27 ce af 3d dd 3c 9e bc de a9 f8 bd
       -0.069259994 0.08584242 -0.019316131 -0.121417746
0002a0 44 cb 16 3e 90 a1 19 bc 13 62 af 3d dd ba 0b be
       0.14725977 -0.009376898 0.08563628 -0.13645501
0002b0 aa e6 46 be 4e 2e a7 3c 52 67 dd bb 62 72 56 bd
       -0.19423929 0.020407822 -0.0067567015 -0.052355178
0002c0 f0 d1 0a bc 60 6a 01 be f8 b7 a2 bd e1 60 b0 bd
       -0.008472905 -0.12638235 -0.079452455 -0.08612228
0002d0 51 10 6f 3d 2c 83 07 3d 47 b4 ba bd 4e bc 83 bd
       0.05836517 0.03308408 -0.091164164 -0.06432401
0002e0 a0 4f 97 bd 30 00 1d 3e 62 e8 ce 3d 28 95 10 be
       -0.07388234 0.15332103 0.10102917 -0.14119399
0002f0 d8 0e 8c bd 25 28 b2 3c 1c 07 96 3d 60 07 34 3e
       -0.06838769 0.021747658 0.07325575 0.17580938
000300 a1 a8 80 3d 34 eb a5 bd d5 34 16 3e 57 7f a3 bd
       0.062821634 -0.08101502 0.14668591 -0.079832725
000310 11 a9 51 bd 0b 86 f1 bd 9e c6 d0 bd cd 8f 0d 3d
       -0.051186625 -0.11793145 -0.10194133 0.034560967
000320 ea 02 90 bc fb c7 12 3d c8 7d f4 bd 96 33 b1 bd
       -0.017579515 0.035835247 -0.11938053 -0.08652417
000330 56 e9 85 3d 85 55 07 3c 30 97 95 3c 80 6f a3 bb
       0.06538646 0.008260136 0.018260568 -0.004987657
000340 a2 5d 2a 3d 71 07 e7 bd 87 56 0b be 54 71 f2 3c
       0.0415932 -0.11280716 -0.13607226 0.029595055
000350 f0 27 1a bd 0f 76 0b be af 82 54 3d 40 8f b2 bd
       -0.037635744 -0.13619255 0.051882442 -0.08718729
000360 2c 2c e4 3d a3 bf 43 bb 0c 72 53 3d 0d 1e 31 3c
       0.111412376 -0.0029868863 0.051622435 0.010810387
000370 5b 74 bd bd 98 b6 20 3e a3 02 ae 3b 30 7d ab bd
       -0.09250709 0.15694654 0.005310373 -0.08373487
000380 6a ea 0e 3d 8b 6b 28 be 35 f4 42 3c d7 48 97 3d
       0.034891523 -0.16447274 0.011899044 0.0738694
000390 05 ca 24 3d 21 2d e1 3d 45 67 90 bd 45 d2 3a 3d
       0.040231723 0.10994936 -0.07050947 0.045610685
0003a0 fe 6a e8 bd 14 f8 fa bc 1f 1a 5a bd 94 e8 3a 3d
       -0.11348532 -0.030635871 -0.053247567 0.04563196
0003b0 c9 d4 fd bd e2 2c 2a 3e dd f9 08 bd ed 94 53 bd
       -0.12394101 0.16618684 -0.033441413 -0.0516557
0003c0 8e 5f 1c be 68 d9 8e 3d 48 4b 0b be 50 4d d3 3d
       -0.15270826 0.06975061 -0.13602936 0.103174806
0003d0 54 5d 82 bd 29 bd dc bc 04 11 fd 3d 33 5b 02 3e
       -0.06365457 -0.026945667 0.12356761 0.12730102
0003e0 49 e5 d4 bc 11 60 e8 3c ec be 17 bd c9 0f c2 3d
       -0.025988238 0.02836612 -0.03704731 0.09475667
0003f0 94 60 9e 3d 40 ca 37 3e 31 fd 93 3d 1d 19 da 3d
       0.077332646 0.17948246 0.07226027 0.10649321

lstm.bias_ih_l1 f4 [128]
000000 f2 b3 58 bd ca 32 01 3c ec 8c d3 bd a4 c4 87 3d
       -0.052905984 0.007885644 -0.10329613 0.06629303
000010 74 8c 0e 3c ad 84 be bc fc 9f 63 bd 54 d6 14 be
       0.008700479 -0.023256624 -0.055572495 -0.14534885
000020 49 2f 2a 3d f6 50 28 3e bb f2 64 bd cc b6 0f bd
       0.041549 0.16437134 -0.05589555 -0.035086438
000030 e3 ce 71 3e c0 db 66 bc 93 67 06 3d df c2 ac 3d
       0.23614077 -0.014090478 0.03281362 0.08435606
000040 c8 8d eb bd 84 be 9c 3d 9f ab fc 3d c5 70 f5 bd
       -0.11501652 0.076535255 0.123374216 -0.119844
000050 ca 4b 23 3e cc b3 bb 3d c1 b5 e8 bb 97 4d 19 be
       0.1594688 0.09165153 -0.007101745 -0.14971004
000060 9e 43 e8 3c 6c 34 11 3e 08 c0 02 3e 12 84 ba 3c
       0.028352555 0.14180154 0.12768567 0.022768054
000070 f8 46 fb bd a0 43 3f 3e ac 5c 57 3d cd c8 9c bc
       -0.122693956 0.1867814 0.052578613 -0.019138718
000080 a6 26 38 3d 0b 43 70 bb ac cd 43 bc 2f b0 4c 3e
       0.044958733 -0.0036661054 -0.011950891 0.19989084
000090 c8 93 7e bd aa ab 5a bd ae cb 83 bd 4d 50 2f 3e
       -0.062152654 -0.053386368 -0.06435333 0.17120476
0000a0 ae 74 31 3e 98 fa 28 3e cf c5 23 3e 1b 27 01 3e
       0.17329666 0.16501844 0.15993427 0.12612574
0000b0 e8 78 78 3e 0e 15 4b bd c5 eb 1d bd fd 09 1a 3d
       0.24264872 -0.049580626 -0.038554925 0.03760718
0000c0 d5 f1 3b 3e 50 6b 86 3d 74 e6 4b 3b ef 65 06 bd
       0.1835397 0.06563437 0.0031112703 -0.032812055
0000d0 70 87 00 bd 8d 49 54 3e 88 6e 7a 3d 94 09 b1 3c
       -0.031379163 0.20731182 0.061140567 0.021611013
0000e0 4e f9 d8 3d a6 da 17 3e 10 ec 39 3e 8a 2f bc bc
       0.10594426 0.14829502 0.18156457 -0.022971887
0000f0 2e d1 11 3e 26 4e 34 bc 08 fb 95 3d 5a 4e fd bd
       0.14239952 -0.01100496 0.07323271 -0.1236846
000100 9c 66 14 bd 2a 64 f7 bd c9 4c da 3d e5 f0 a3 bd
       -0.03623067 -0.12079652 0.10659177 -0.08004931
000110 ca 66 0a bd 9d 05 f0 bd 3d 3e 33 3d 15 c1 44 3c
       -0.033789434 -0.11719821 0.043760527 0.012008925
000120 0a d5 11 3e 44 d2 14 bd 63 e1 16 be d4 ae 8d bd
       0.14241424 -0.036333337 -0.14734416 -0.069181114
000130 98 bd 44 be bb 9c 2d be 0a e4 ce 3d 10 e7 d7 3c
       -0.1921295 -0.16954319 0.10102089 0.026355296
000140 ff 02 c6 bd bb f0 94 bd 92 e5 25 3d 2a ff 00 bd
       -0.0966854 -0.07272478 0.04050214 -0.031493343
000150 50 ff 19 3e 24 ab 31 bd e8 d3 06 3e b5 0f 98 3d
       0.150388 -0.043376103 0.13166773 0.07424871
000160 31 43 94 3d f1 ba 89 bc 89 86 72 3d 20 18 b9 bd
       0.07239378 -0.016812773 0.059210334 -0.090378046
000170 81 b8 8b 3c 24 f2 23 bd ee 68 0f 3e fd 86 2d 3e
       0.017055752 -0.040025845 0.14004871 0.16946025
000180 13 47 0e be 40 50 f5 3d d2 83 01 3d 52 01 d5 3c
       -0.138943 0.11978197 0.031619854 0.026001606
000190 82 bf e3 bc 7b cf 1c 3e c1 2f 0c 3e 4a 61 b3 bd
       -0.027801279 0.15313523 0.13690092 -0.08758791
0001a0 92 6b 36 bb 48 3f 8c 3d 4a 70 5b bc 33 cf 28 3e
       -0.0027835113 0.068480074 -0.013393471 0.1648529
0001b0 3c d8 46 3e 1a c7 59 3e 6e d5 37 3e 92 85 71 bd
       0.19418424 0.21267357 0.1795251 -0.058965273
0001c0 19 3c a9 3d 2a 5c a6 bb df 78 81 bd 0c 8e 77 3d
       0.08263416 -0.005076905 -0.063218825 0.0604382
0001d0 49 3d 92 3d 9a 1b 64 3d e1 08 3e bd 8b 91 a1 3c
       0.071405955 0.055690385 -0.046395186 0.01972272
0001e0 36 d3 38 3e 45 e3 2d 3e 0d 0c 20 be 66 47 fc 3c
       0.1804932 0.16981228 -0.15629597 0.030795764
0001f0 32 0e 20 3d dc 7d 85 3e da e8 a3 bd a7 59 38 ba
       0.039076038 0.26072586 -0.08003397 -0.0007032402

lstm.bias_hh_l1 f4 [128]
000000 07 22 03 be 0d e3 b3 bd f1 d7 8d 3d 59 9e a9 bc
       -0.12805949 -0.08783541 0.06925953 -0.020705389
000010 a5 8f 4e bd df 47 71 3d b2 4e b7 3d 21 13 c6 bd
       -0.05042996 0.058906432 0.08950557 -0.09671617
000020 e5 3a 22 bd 7e e6 85 3d 93 ac 9c bd 6d 4e bc bd
       -0.039606947 0.065381035 -0.076501034 -0.09194646
000030 1b 97 97 3d 1d ad 06 3e d5 39 7c bd ea 6d e1 bc
       0.07401868 0.13151975 -0.06157859 -0.027518231
000040 5d 1a 77 bd f0 97 b3 3c 57 e9 c9 bd b4 2b 03 3e
       -0.060327876 0.021923035 -0.09858959 0.1280964
000050 ce f0 77 bd 3a f4 89 3c a9 ef 04 3e 25 4b fb 3d
       -0.060532384 0.01684009 0.12982048 0.12270192
000060 22 5d 84 3e d6 35 11 3d e0 8f a4 3d ba 09 41 3d
       0.25852305 0.035451733 0.080352545 0.047128417
000070 89 7d 45 bc f0 3f 66 3d 3b ee 62 bd 39 00 30 bd
       -0.012053856 0.05621332 -0.055402976 -0.042968962
000080 82 9a ff bd eb f8 42 3e 37 1b 88 bd d7 6b e6 3d
       -0.12480642 0.19040267 -0.06645816 0.112510376
000090 6c 4d 7e bd fb a1 0a 3e f5 c3 a4 bd 95 2e b9 3d
       -0.062085554 0.13538353 -0.08045188 0.09042088
0000a0 27 77 f0 bd 50 33 0b be 67 31 c6 3d 36 56 d4 bd
       -0.117414765 -0.13593793 0.096773915 -0.10368006
0000b0 4c 57 e1 3c f6 26 a5 3d 4b 99 15 3e 1b ce 17 be
       0.027507447 0.08064072 0.14609258 -0.14824717
0000c0 b9 97 e8 3d 4a f9 21 3e d9 05 09 3e 82 35 12 bd
       0.11357064 0.15817752 0.13381137 -0.03569556
0000d0 6f 8a 52 3e 0e a9 f9 3c 90 28 81 bd b7 94 01 3e
       0.2056062 0.03047612 -0.06306565 0.12654386
0000e0 87 cf 42 bd 92 c1 83 bd ae 1d e7 3d 0c 10 98 3d
       -0.047561195 -0.06433405 0.11284958 0.07424936
0000f0 55 30 d1 bd 8c e5 86 3e bd 29 20 3c 79 40 41 3e
       -0.10214297 0.26347005 0.009775576 0.1887225
000100 4c 8a 9f 3d 5f ca 28 3d 43 de 48 bd 4c f6 1b be
       0.0779005 0.04120862 -0.04904009 -0.15230674
000110 af b0 ad bd ee a5 b1 bd 86 22 eb 3d fa 5e 7f 3d
       -0.08480965 -0.08674227 0.11481194 0.062346436
000120 6a e2 49 3e 0e da da bd c7 46 de 3d 6d 56 12 3e
       0.19715276 -0.10686122 0.108533435 0.14290781
000130 cc e2 43 be bd 49 3d be 90 c9 9b bd 42 52 e4 3c
       -0.19129485 -0.1848516 -0.07606804 0.027871255
000140 1b 6c b4 3b 98 6c 8f bd da cd 12 be f7 89 4b bc
       0.0055060512 -0.070031345 -0.14336339 -0.01242303
000150 34 5c 8c 3b 58 ba b3 3d 66 c2 98 ba 77 59 ee 3d
       0.0042834524 0.087757766 -0.0011654615 0.11638158
000160 89 d2 48 3e bb bd 78 bd 9b 2e 3d bd fb 6f 19 bc
       0.19611563 -0.060727816 -0.046187025 -0.009365077
000170 f1 c7 0a be 3b a3 46 be 2d a9 3b 3d ee a2 3e 3e
       -0.13552834 -0.19398205 0.045815635 0.1861684
000180 32 fc bf bd 6f ed a0 bd 18 82 bb 3d f6 54 1c 3e
       -0.09374274 -0.07857787 0.09155673 0.15266785
000190 05 fa 33 bd ca 46 15 3e 69 15 17 3e 4e 70 3f 3d
       -0.04393961 0.14577785 0.14754261 0.04673796
0001a0 17 ce a9 bd 17 ae 14 be 34 56 92 bd c5 2f 51 3e
       -0.08291262 -0.14519535 -0.07145348 0.20428379
0001b0 e0 d3 01 3e 3d 21 fc 3d 65 2b c0 bd 85 f1 f0 bd
       0.1267848 0.12311027 -0.09383277 -0.11764816
0001c0 42 2f 16 3e a2 b3 b6 3d 2c c6 f1 3d 4d e6 08 be
       0.14666465 0.08920981 0.118053764 -0.13369103
0001d0 33 3e 75 3c 72 38 46 3d 2a 51 2f be a3 1d b8 bc
       0.014968443 0.048393674 -0.17120805 -0.02247507
0001e0 97 a6 23 3e 13 35 4e 3e 51 dc 27 3e 7b fc 45 3e
       0.15981518 0.20137434 0.16392638 0.19334595
0001f0 63 03 30 3b f6 25 94 3e 51 cd 01 3e 11 c1 47 bd
       0.0026857487 0.28935212 0.12675978 -0.048768107

attention.attn.weight f4 [1, 32]
000000 fc a9 ab bd 2e dd 3d be 15 f7 61 bc c0 66 57 bd
       -0.08382031 -0.18541405 -0.013791819 -0.052588224
000010 7c e9 8d 3d 50 9f e1 3b 77 ba 80 be 45 58 1b be
       0.06929299 0.0068854466 -0.2514226 -0.15170391
000020 2b 76 0e 3e 9d 4c da 3b 76 bc 00 be fd cd b0 bd
       0.13912265 0.006661965 -0.12571892 -0.08633039
000030 41 6a c6 bd 1f 53 c6 3d 74 c4 9a bc 31 95 e6 3d
       -0.09688235 0.09683823 -0.018892504 0.11258925
000040 1e 37 23 3d 05 0c 2e be 96 89 19 be 25 52 40 be
       0.039847486 -0.16996773 -0.14993891 -0.18781336
000050 a9 c8 48 3e b1 6b 09 be e4 28 25 3e 85 02 ff 3c
       0.19607796 -0.13419987 0.1612888 0.031129131
000060 ed 73 54 be 94 7c 30 3d b6 31 93 bc 9d 9e 00 be
       -0.20747347 0.043087557 -0.01796804 -0.12560506
000070 bc 9d da bd 34 3b 80 3d 10 5b 48 3d 15 36 26 3d
       -0.10674617 0.06261292 0.04891497 0.04057892

fc.0.weight f4 [32, 32]
000000 b3 af 58 bb 36 1b 68 3d d0 fa 48 bd ed d4 cf 3b
       -0.003306371 0.056666575 -0.04906732 0.0063425214
000010 50 69 79 bc 7e c2 06 bd 3a 3c 87 3d 8d a2 87 bd
       -0.015222862 -0.032900326 0.06603284 -0.06622801
000020 2c 01 50 3d f5 6e 4b bc 6e b0 26 3e 51 2a 23 bc
       0.050782368 -0.012416591 0.1627824 -0.0099588195
000030 3a 37 33 3d 00 29 d3 3c b9 b2 c1 bd 9b c4 2a be
       0.04375384 0.025776386 -0.09457917 -0.16676562
000040 30 1c b5 3d 11 9f ca 3d 76 3a 3f 3d e2 05 1b be
       0.08843267 0.09893621 0.046686612 -0.15138963
000050 a2 71 3a 3d a3 2f 43 3c e1 59 0b 3e b1 8a f7 bd
       0.045518525 0.011913213 0.13608505 -0.12087
000060 bf bf e4 3d ae 2d 0c 3e 10 97 08 be 8c fc c4 bd
       0.11169385 0.136893 -0.13338876 -0.09618482
000070 29 3f 1e bd 0c 74 93 bd 2f 6c d3 bc e7 78 05 3e
       -0.038634453 -0.071998686 -0.025808422 0.13034402
000080 ed 9b e3 bb 86 a0 e2 3c a2 a6 91 3d 44 ef c0 bd
       -0.006946078 0.027664434 0.07111861 -0.09420636
000090 62 4a ab 3d 6c c3 23 bb 81 6f 12 bd 3a a9 7a bc
       0.08363797 -0.0024988307 -0.03575087 -0.015299136
0000a0 10 19 9b 3d d1 28 a2 bd ac 1c e6 3c 70 28 d2 3d
       0.0757314 -0.07917941 0.028089844 0.10261619
0000b0 93 be 18 3d 7b 38 dd b9 86 09 15 be e6 b1 44 3d
       0.03729112 -0.00042194486 -0.14554414 0.04802122
0000c0 9f b1 33 3e 01 84 08 be 4f 96 d0 bd 5a 1e da bd
       0.17548226 -0.13331605 -0.10184919 -0.1065032
0000d0 a6 4d 30 3b 3f ba d2 bc b4 6d 01 be 03 f3 07 3e
       0.002690175 -0.025723575 -0.12639505 0.13276295
0000e0 24 ce d4 3d 37 42 f7 bd 63 3c 0f 3c e6 12 78 bc
       0.10390881 -0.12073176 0.008742425 -0.0151412245
0000f0 42 f5 74 bc 6a d7 3c 3e 0f c6 ce bc b4 15 88 bd
       -0.014951052 0.18441549 -0.025240926 -0.066447645
000100 e3 fc 6b bd 60 72 3c be ab 25 09 3d 97 84 a4 bc
       -0.05761422 -0.18403006 0.03348319 -0.020082755
000110 8d 93 99 3d b9 01 b9 bc f5 00 80 3b ac 0d e5 bc
       0.07498846 -0.02258383 0.003906364 -0.02796062
000120 97 c0 22 3e f3 4c 1e be 43 79 32 be d3 88 75 bd
       0.1589378 -0.15459041 -0.1742907 -0.05994494
000130 c0 74 18 3c 19 44 cd 3d 8a 94 3e 3e d2 e3 f4 bc
       0.009305179 0.10022754 0.1861135 -0.02989379
000140 dc bf 09 be a1 7c 5d 3c 4f 95 b5 bd 28 cb ff bd
       -0.13452095 0.013518483 -0.08866369 -0.12489921
000150 03 a2 54 3c 44 db 07 3e 70 ff 07 3e df cc dc 3d
       0.01297808 0.13267237 0.13281035 0.107812636
000160 7a 72 34 bd e1 15 30 3d 41 d3 8e 3d 7e eb bd 3d
       -0.044054486 0.042989615 0.06973887 0.09273432
000170 3d 19 0b 3e 0d 52 31 3d 64 d0 35 3e a2 9f 3b 3e
       0.13583846 0.04329114 0.17755276 0.18322614
000180 da ca 88 bc d0 87 89 bc 59 76 55 3c 62 47 7a bc
       -0.01669829 -0.016788393 0.013028705 -0.015275808
000190 04 9a 98 bc e0 6a af 3c 6a 9a 87 3c d1 d2 80 bc
       -0.018628128 0.021413267 0.016553123 -0.015725525
0001a0 cd f1 4c bc 63 68 37 bc 26 c3 6f bc 2d 10 77 bc
       -0.012508822 -0.011194321 -0.014633929 -0.01507954
0001b0 e7 59 5c bc fe 18 b5 3c bf b3 ac 3c 0e 67 9d 3c
       -0.013449169 0.022106644 0.021081803 0.01921418
0001c0 2c 68 84 bc 8e 0b 00 bc a9 d1 74 bc f2 69 99 bc
       -0.016162954 -0.007815255 -0.014942565 -0.018727276
0001d0 a9 35 d1 bc ef 48 80 3c c6 0f a8 3c 68 3c af bc
       -0.025538282 0.015659777 0.020515334 -0.021391109
0001e0 d5 84 b5 bc 98 f1 ad 3c f1 10 97 3c 5f ad 90 bc
       -0.022158066 0.021233365 0.018440695 -0.017660795
0001f0 a5 2c 78 bc 1f ec b2 3c 17 1f 96 3c 35 bf 63 3c
       -0.015147363 0.021841107 0.018325372 0.013900568
000200 35 07 90 3d 5b 90 19 3c b0 bc 2f bd 50 d4 a2 3d
       0.07032625 0.009372796 -0.042904556 0.07950652
000210 2f 71 d1 3b 9d db 81 3c d1 89 25 bd 15 3f 24 ba
       0.0063916664 0.01585179 -0.040414635 -0.00062655035
000220 8d fa 0d 3d eb 33 08 bc 9b e6 0f 3c 64 0b 8a bd
       0.034662772 -0.008313159 0.008783008 -0.06740454
000230 7f ff 1f 3c b0 f8 e0 3c 18 98 8b 3d 8f da 8b bd
       0.009765505 0.027462333 0.06816119 -0.06828796
000240 18 12 a1 bb 13 54 86 3d ea c8 94 3c f6 30 88 bd
       -0.004915487 0.06559005 0.01816221 -0.066499636
000250 d5 78 ae 3b 5d 01 f6 bc cf a4 c4 b7 4d 7e a7 bd
       0.005324463 -0.030029947 -2.3441766e-05 -0.08178387
000260 d9 70 13 3c ea 79 0e bc 6a 3d e7 bb 1a d7 f1 3c
       0.008999073 -0.008696059 -0.0070568817 0.029521514
000270 b2 bf 0f 3c ff 08 67 ba 89 71 62 3c ec 0d 06 bc
       0.008773731 -0.0008813291 0.013821014 -0.00818203
000280 15 d7 59 3c 03 53 99 bd 7c 1b 4f be 9a 37 aa 3d
       0.013295908 -0.07486536 -0.20225328 0.083113864
000290 d7 82 d8 3d 1e 30 17 3e 17 11 f6 3d 34 ea 19 3e
       0.10571831 0.14764449 0.120149784 0.15030748
0002a0 de 03 8e 3c f9 22 89 3c 7e cb 5a bd ca 9a 90 3c
       0.017335828 0.01674031 -0.05341672 0.017651934
0002b0 be 2e 5e bb a9 8f 1b 3e c3 57 19 3e 1e 61 b0 3c
       -0.0033902372 0.15191521 0.14974885 0.021530684
0002c0 d1 32 25 3d 22 84 50 bd f0 52 95 bd 6b ac 85 3d
       0.040331665 -0.05090726 -0.0729121 0.06527027
0002d0 39 93 fb 3d 94 ce ed 3d b9 f1 01 bd 61 32 ef bd
       0.1228394 0.11611667 -0.031724665 -0.11679531
0002e0 fb 20 15 be 82 94 99 bd 4c 68 33 3e cb 01 00 3e
       -0.14563362 -0.07499029 0.17520255 0.12500684
0002f0 b0 7b 48 3e 82 37 99 bd 0d d8 49 be f8 2b 9e 3d
       0.19578433 -0.074812904 -0.19711323 0.0772323
000300 07 63 26 3d 85 a2 56 3d fb d1 36 be 5d 90 a0 bd
       0.040621784 0.052401084 -0.17853539 -0.07840035
000310 c2 ad ec bd 12 6d 60 3d c1 79 33 3d d2 fb 1a 3d
       -0.11556579 0.054791518 0.043817285 0.03783781
000320 5a 93 c2 bc 44 ea c0 3d d6 f5 21 3e 26 22 5f 3d
       -0.023751903 0.094196826 0.15816435 0.054475926
000330 bf 72 aa 3d e7 1b a4 3d d3 46 60 3d 08 24 78 3d
       0.08322667 0.080131344 0.054755043 0.060581237
000340 9c 94 1e 3e e6 a6 2f 3e 78 70 33 3e e8 36 90 3d
       0.15486377 0.1715351 0.17523372 0.070417225
000350 81 6b 5e 3d d3 60 54 be 0e db 64 bd 91 c2 10 be
       0.054301742 -0.2074006 -0.05587297 -0.14136721
000360 ba 89 68 bd 95 52 b1 bd 19 6a 16 3e 58 e9 f1 bd
       -0.05677197 -0.086583294 0.1468891 -0.11812085
000370 1e 48 ae bc 25 74 a9 bd 52 5b 04 be 39 2d 01 be
       -0.021274623 -0.08274106 -0.12925461 -0.12614907
000380 b6 d6 8d bd 41 69 a1 bc fb 80 0e 3d 22 42 0d bd
       -0.069257185 -0.01970351 0.034790974 -0.034486897
000390 2f 94 94 bd 4c 8f 85 b9 1f a4 14 bd 90 d8 e2 3d
       -0.07254826 -0.000254745 -0.03628933 0.11076462
0003a0 5c 8d ba bd 8a 14 4b bc 01 af 50 3c a9 a1 ec 3d
       -0.091089934 -0.012395034 0.012737037 0.11554272
0003b0 25 3e 65 3c 8f 25 3d 3d e0 74 cd 3d 15 80 cb bd
       0.013991867 0.046178397 0.10032058 -0.09936539
0003c0 fe 01 95 bd 92 e0 af 3c ba 1e b8 bd ed 1c 00 be
       -0.072757706 0.021469388 -0.089902356 -0.12511034
0003d0 d2 fe 7c 3c e6 de a5 bc d6 96 81 bd 7c 80 a0 bb
       0.015441613 -0.020247888 -0.06327598 -0.004898129
0003e0 a4 a5 83 3c d6 54 a9 bc ee cb 92 bd b9 0a 12 3e
       0.016070195 -0.020670336 -0.07167803 0.14261903
0003f0 c5 76 d3 3d 30 b0 40 3c 9b 3f a9 3c 44 f6 98 bd
       0.10325388 0.011760756 0.020660212 -0.074688464
